src/luxia.tflite (tflite, 1876 bytes, 4 tensors)

sequential/dense_1/BiasAdd/ReadVariableOp f4 [3]
1.6738255 -0.0035420044 -1.6441625
00000000: ea3f d63f f920 68bb eb73 d2bf

sequential/dense/BiasAdd/ReadVariableOp f4 [8]
0.0 0.0 0.0 0.0 -0.6637532 -0.10621778 -0.93819845 -0.054683823
00000000: 0000 0000 0000 0000 0000 0000 0000 0000
00000010: bbeb 29bf b588 d9bd c62d 70bf 25fc 5fbd

sequential/dense/MatMul f4 [8, 1]
-0.52749765 -0.4395223 -0.72401047 -0.6238766 1.1616559 1.8511636 1.6644257 1.150934
00000000: 160a 07bf 1109 e1be c058 39bf 60b6 1fbf
00000010: 24b1 943f eef2 ec3f e70b d53f ce51 933f

sequential/dense_1/MatMul f4 [3, 8]
0.5897259 0.07520574 0.7190184 0.47679883 -0.41210598 -2.2559006 -0.36623922 -2.2727783
0.20252645 0.4215092 0.040469706 0.08159721 -2.2026932 1.3982644 -1.1456183 1.5725111
0.36302453 0.22945446 0.59559184 0.33936924 1.7218826 0.9813118 0.7544563 -0.12829104
00000000: 47f8 163f 7805 9a3d 9711 383f fa1e f43e
00000010: 8eff d2be ad60 10c0 b583 bbbe 3375 11c0
00000020: 1863 4f3e 0ed0 d73e 90c3 253d 701c a73d
00000030: edf8 0cc0 54fa b23f 9fa3 92bf 0b48 c93f
00000040: 5ade b93e 1cf6 6a3e b578 183f cec1 ad3e
00000050: a666 dc3f 4037 7b3f 0c24 413f ba5e 03be
