src/luxia.tflite (tflite, 1876 bytes, 4 tensors)

sequential/dense_1/BiasAdd/ReadVariableOp f4 [3]
000000 63 83 d9 be 12 d4 d0 3e 36 22 28 bd
       -0.42483053 0.40786797 -0.04104825

sequential/dense/BiasAdd/ReadVariableOp f4 [8]
000000 ad a0 07 be 4b 52 36 3f 2b c4 9e be bd c3 4d 3f
       -0.13244887 0.7121932 -0.3100904 0.803768
000010 3d 9f d7 3e 1f 28 03 bd 50 5a 64 be 01 a6 ff bd
       0.42113677 -0.032020684 -0.22300076 -0.124828346

sequential/dense/MatMul f4 [8, 1]
000000 be a7 a8 3e 53 97 e6 bf 1e 19 fd 3e 26 8a 6f 3f
       0.32940477 -1.801493 0.49433225 0.9357017
000010 8c 7c 8f 3f 8c 1e 80 bf 73 c9 89 be bb 13 2f 3d
       1.1209884 -1.0009322 -0.26911506 0.042743426

sequential/dense_1/MatMul f4 [3, 8]
000000 1e 46 d2 be 9a 9b 5c 3f 1b 88 84 bd 0b 4a b8 bf
       -0.4106912 0.8617493 -0.064712726 -1.4397596
000010 2c 36 54 be 8b 27 bd 3f e4 66 9e be 8a d7 84 3e
       -0.2072379 1.4777693 -0.30937874 0.25945693
000020 54 9c f2 3e ff 2a 31 3f ac e1 f4 3e 09 ca c0 3d
       0.47384894 0.6920623 0.47828424 0.09413535
000030 d6 9b 68 bf ef cb 81 be b0 de e8 3d 50 48 0a be
       -0.90862787 -0.253509 0.11370599 -0.13504148
000040 fd 88 45 3e 3f ac 26 bf 56 be b4 be e8 20 55 3f
       0.19290538 -0.65106577 -0.35301465 0.83253336
000050 d9 4e 78 3f b1 ef 55 bf fd da a6 3d 40 6c 97 be
       0.9699531 -0.83568865 0.081472374 -0.29574776
